trained_models/GCNConv_1.pth (torch, 56543 bytes, 9 tensors)

initial_conv.bias f4 [64]
00000000: 53b5 123d 8cfa 45be e38a d2be e829 913d
00000010: 17a1 833d d3f1 f23c ca11 5e3d c507 6b3c
00000020: e28c fcbd e925 443d 8f24 7abd 6d13 c1bd
00000030: 365a 1e3e c71f a8be e470 203e 588e 23bd
00000040: 139a 82bd 58bf 133e e669 b7bd 43f6 873c
00000050: bfd4 653d 4eb4 333d cae2 913d 197f babd
00000060: d686 0ebc 676e 5abd fc27 16bd 9de3 89bc
00000070: 54d3 debc 0580 243e acf3 c6bc f487 cbbd
00000080: 1b22 5fbc 0c47 98bd 9b34 9abd a98d 473d
00000090: 0463 08be 6cbe 0b3e 1a1a c53c 082d 94bd
000000a0: d58a 703e 1f97 3e3d 0324 533d 6ed3 d7bc
000000b0: cc74 c63e c9af a43d 1468 dfbe 02c5 833e
000000c0: 7967 ca3d 49fd b33c f507 8bbc a0c5 6abe
000000d0: 42e4 91bc 3208 a13d 2c01 16be 91cc c6bd
000000e0: 1bc4 a03d 751a 843e 947c 87bc 869e 9f3e
000000f0: 78b2 bcbb 28a2 4c3e 4353 3fbe 1db2 463e
0.035817456 -0.19333857 -0.41121587 0.07088071 0.0642721 0.029656326 0.054216184 0.014345114
-0.12331559 0.047887716 -0.06107002 -0.09427533 0.154641 -0.32836744 0.15668064 -0.03993067
-0.063770436 0.1442846 -0.089557454 0.016596919 0.056111094 0.043873124 0.07123335 -0.09106273
-0.00869914 -0.053327944 -0.036659226 -0.016832167 -0.027200378 0.1606446 -0.024286114 -0.099380404
-0.013618971 -0.07435426 -0.07529565 0.048719082 -0.13319021 0.13646859 0.024060298 -0.072351515
0.2349046 0.04653084 0.051548015 -0.026345935 0.38760984 0.08041341 -0.43634093 0.25736243
0.09883017 0.021971362 -0.016971568 -0.2292695 -0.017809037 0.07862891 -0.14648885 -0.09706987
0.07849904 0.25801435 -0.016538896 0.3117563 -0.00575858 0.19983733 -0.18684106 0.19403882

initial_conv.lin.weight f4 [64, 9]
00000000: 5cf6 b6bc eac0 1c3e b1d7 23be 28d6 cbbd
00000010: 3df4 fe3e 1cca 7fbe fb9b b93d e0a5 aa3e
00000020: 210b 1d3e aa2c b03a 3af9 2abe 92f1 053d
00000030: 7fb3 49bd 35b8 213d d821 e43d 447a 3e3e
00000040: a1e5 8cbe 91da 4ebd d599 0abf e53b 68be
00000050: 3f47 c2be bd4e 1dbf 962e 67be f0ff 073d
00000060: 25d9 12bf d5ad 0f3e a444 aebe 3ae1 dbbc
00000070: e8c5 64bd 719e 89be 99d3 eabd fecd 3abd
00000080: 76c0 5e3e 0a07 df3e 51f7 8e3e 8590 aabd
00000090: 0158 44be 5919 803e d250 783e a280 9a3d
000000a0: 8884 97bc 4ff1 6bbe 5447 86bd 94c9 9b3e
000000b0: 483b f1bd fd35 8a3c fec2 73be e489 70be
000000c0: 8496 fa3c 9b38 3bbe 709f 11bd 7b12 353e
000000d0: 534d bbbe 7f3b 193e 9f38 51be 2947 0fbe
000000e0: 699d 7d3e cf00 903e 77df 10be 1a10 f1bd
000000f0: f687 75be 1469 18be 67e9 8bbe fa65 54bd
00000100: a09e 6f3d d1a4 a3be 6273 8c3e 1a3f e13e
00000110: 05b2 8fbe 50c9 eabd e5e8 d53c b0d8 c7bd
00000120: 4538 9f3c 5e8d 04be 72b0 8d3e 538c 60be
00000130: be30 253f 1089 973c 97e9 55bc e63b 3b3e
00000140: 7f97 1dbe 6426 2cbe 20ec 3dbd 8179 c63e
00000150: 25e2 22be 04c2 1c3e 8742 90be e9c1 503e
00000160: 3d99 413d f91c 67bd 835a bd3d 0010 a939
00000170: 0434 1e3e b456 9dbe 1ae2 c8be 923b 023e
00000180: aef1 8c3e 4fc1 0a3e c94c bdbe efd7 9a3e
00000190: 94ee 82bd d83b d9bd 47ba a7be f6e8 d9bd
000001a0: b0a6 4f3e dbd4 7a3c 3f74 dfbe 18b9 c3be
000001b0: 8767 85bc bd03 863e 99ff 59be ce95 ddbc
000001c0: 38e5 37bf 1a3c e7bd 1c59 6a3e 0dc6 f23e
000001d0: e89c 433e 8382 563d 70c0 653d 23e7 743c
000001e0: 6d57 c5bc 1032 0a3f ad51 24be 7f37 7e3c
000001f0: e6aa bb3c 3a63 05bf 80d3 80bd 6d3b 76be
00000200: 8360 a93c 34da 5abe 1e41 0a3e 246b b93d
00000210: 437d 49be 8882 8ebc 1885 c1bd 8938 e83d
00000220: c872 283e 9baa bdbe 64d2 6f3e dcdc d03e
00000230: 609d e93d ba91 93be 71e9 c0bd c4cd 29bc
00000240: c5c7 d1bd 468d 253e eeda ca3d d329 703e
00000250: e17d 22be dc98 c53d b907 893d 0796 04bf
00000260: f945 28bf bf8c d3bc bcf6 483e 5e6e 86be
00000270: fefc 09be 296e 893e f463 1e3e 6c4b bf3e
00000280: 6a98 21be eca4 99bd 5ed4 7f3d 7e4c 7f3e
00000290: f2b4 713e 247d 6cbc 274f c53d 8151 8b3e
000002a0: 19a2 96be 48b4 10bf 1b0f b63e 2f17 89be
000002b0: 0ee1 21be c827 973e 9574 b43d 1b9e 973c
000002c0: e6da f8bd 2494 ecbc 494f 893e 11b9 4dbe
000002d0: 1e25 72bc 609f 0b3e 51f5 82be 9fa6 a73e
000002e0: 6faa 33be 88fe 8cbd a97c 79bd a416 bdbe
000002f0: 54dc 29bf 7bf8 5e3e 20fd 9b3d d56c b2be
00000300: 3caf 29be e663 ad3e 406d e03d 915c 0e3e
00000310: d79d 11be 865b 9dbd f136 d5bc e4c0 56bd
00000320: c38c 35be 2935 9a3d d76d d0be 78b0 14bd
00000330: b52f c03d 72a3 cdbd 87c6 3e3e 1c8f 483d
00000340: baa2 1abe ac41 f2be ba4f 693d db8a 4fbc
00000350: 994e 15be 838b 473e 5ab9 26bd 7810 ae3e
00000360: 6cf8 323e 0422 76be 1acf 8f3e dbb7 86be
00000370: 03a7 88be 68c5 43bd 5b00 43be 7859 ad3e
00000380: 9887 4fbd e770 1e3d 1c11 83be 714b 563e
00000390: 94ab 17be d764 e3be 28b5 2b3d f9ff b73d
000003a0: 18f3 6e3e 366e 73be 2fbc 6dbe 90c5 613d
000003b0: 21fa f63d b1b0 a43d acf9 203e 0e23 85bd
000003c0: 30a8 103e a49f 253f 85b7 ae3e a8c7 743e
000003d0: e06e 0f3e 02d4 3a3e a515 32be f065 34bd
000003e0: 18c4 a9bd 7f4f d93c 0353 b23d 6a47 0dbe
000003f0: 0e8d 073e d86b d2bd 424a 6c3e bc31 07bd
-0.02233427 0.15307966 -0.16000248 -0.099529564 0.49795714 -0.24979442 0.09062954 0.33329678
0.15336277 0.0013441045 -0.16696635 0.032701083 -0.049243446 0.039482314 0.11139268 0.18601328
-0.27518943 -0.05050141 -0.5414098 -0.22679098 -0.3794498 -0.6144827 -0.22576365 0.033203065
-0.57362586 0.14031155 -0.34036744 -0.026840795 -0.0558528 -0.26878694 -0.1146614 -0.045606606
0.21753106 0.43560058 0.27923062 -0.08328346 -0.19174196 0.2501934 0.2424958 0.07544066
-0.018495813 -0.2304127 -0.065565735 0.3042723 -0.11778885 0.016871447 -0.23804852 -0.23490101
0.03058935 -0.18283312 -0.035552442 0.17682831 -0.3658243 0.14964102 -0.20431755 -0.13991989
0.24767078 0.28125617 -0.14147745 -0.11770649 -0.23977646 -0.14883834 -0.2732651 -0.051855065
0.058500886 -0.31961682 0.2743178 0.43993455 -0.28065506 -0.114641786 0.02611203 -0.09758127
0.019436011 -0.12944552 0.2767368 -0.2192853 0.645275 0.018497974 -0.01305618 0.18284568
-0.15389822 -0.1681152 -0.046367764 0.38764575 -0.1590658 0.15308386 -0.28175756 0.20386471
0.04726528 -0.056424115 0.09245779 0.00032246113 0.1544953 -0.30730212 -0.39235002 0.12718037
0.27528137 0.13550304 -0.36972645 0.3024287 -0.063931614 -0.106071174 -0.32759306 -0.10640137
0.2027843 0.015309538 -0.43643376 -0.38227153 -0.016284717 0.26174727 -0.21288909 -0.027048972
-0.71834135 -0.1129076 0.22885555 0.47416726 0.19102824 0.05237056 0.056091726 0.014947685
-0.02408954 0.5398264 -0.16046782 0.015516161 0.02290864 -0.5210453 -0.062903404 -0.24046107
0.020675903 -0.213723 0.13501403 0.090536386 -0.1967669 -0.017396227 -0.09449214 0.11338908
0.16450036 -0.37044224 0.23420101 0.40793502 0.1140697 -0.28822118 -0.094195254 -0.010364
-0.10243181 0.16167173 0.09905039 0.23453455 -0.15868331 0.09648296 0.06690926 -0.51791424
-0.6573177 -0.025823949 0.19625372 -0.26256078 -0.13475415 0.26841858 0.15467817 0.3736223
-0.15780798 -0.075021595 0.06245839 0.24931523 0.23604181 -0.014434133 0.09634238 0.2721062
-0.29420546 -0.5652509 0.355584 -0.267755 -0.15808508 0.29522538 0.08811299 0.018508008
-0.121511266 -0.028879233 0.26818302 -0.20090128 -0.014779357 0.13635015 -0.25577787 0.3274431
-0.17545484 -0.068844855 -0.0609099 -0.36931336 -0.6635182 0.21774475 0.07616639 -0.34848657
-0.16570753 0.3386528 0.10958338 0.13902499 -0.14220367 -0.07683472 -0.026027175 -0.05243005
-0.17729478 0.07529671 -0.407088 -0.036301106 0.093840994 -0.1004094 0.1863042 0.048964605
-0.15101138 -0.4731573 0.0569608 -0.012667383 -0.14580764 0.19486813 -0.04070411 0.3399694
0.17477578 -0.24036413 0.28087693 -0.26312146 -0.2668992 -0.047795683 -0.19043104 0.33857322
-0.05066642 0.03868189 -0.2559899 0.20927216 -0.14811546 -0.44412872 0.04192081 0.0898437
0.2333492 -0.23772511 -0.23216318 0.05512005 0.12059427 0.08041514 0.15720242 -0.06500827
0.14126658 0.6469672 0.3412439 0.23904288 0.14007139 0.18244937 -0.17391069 -0.044042528
-0.08289355 0.026527165 0.087072395 -0.13796774 0.13237402 -0.10274476 0.23075202 -0.033006415

conv1.bias f4 [64]
00000000: f3ba 343d deeb b23d fe91 0cbc 7fb5 acba
00000010: ff73 c23b e10b b5bd 09f5 793c cf23 31bd
00000020: 8b75 3b3d bbbc 10bd c9a4 783c 6921 1abd
00000030: fa2d 30bc 026e a63c 6a50 8cbc 07b7 9a3d
00000040: 38ee b43d 7056 85bc f75a 7ebc a89f d33d
00000050: 0d93 5d3d 0270 f7bd 8ddb 383d f75d fa3c
00000060: 4503 333d 82df e4bc 0ace 5ebd 270e b73d
00000070: d09c 4fbd d56e 273e e5c9 873c 23f5 d43d
00000080: fc1c 653c 2d0e 113e d577 7b3c e164 78bc
00000090: d036 0d3d b76b bb3d d743 46bd 2e7d a4bc
000000a0: 2b67 66bb 61a2 98bc 99eb 913b 897c 4e3d
000000b0: 7af5 d8bd 8560 86bc 5500 3c3d 0047 bdbd
000000c0: 48fc 07bd 077d 773c 88ff 763d cfbb 313d
000000d0: cce1 8cbc b242 66bd f8d3 13bd f7e9 b1bb
000000e0: 2534 12bd 440b 343d 85c7 b23c 7079 ad3d
000000f0: ee6c 28bd 9376 003d f747 0dbd f160 8ebd
0.0441236 0.08736394 -0.008579729 -0.0013176649 0.005934238 -0.08840156 0.015256175 -0.04324704
0.045766395 -0.035336237 0.015176007 -0.03762952 -0.010753149 0.020316128 -0.017128188 0.07554441
0.08834499 -0.016276568 -0.015524617 0.103331864 0.054095317 -0.12081911 0.045131255 0.030562384
0.04370429 -0.027938608 -0.054395713 0.08938246 -0.050686657 0.16350873 0.016575763 0.103983186
0.013983961 0.14165564 0.015348394 -0.01516077 0.0344761 0.09151404 -0.04840454 -0.020079222
-0.0035156708 -0.018632116 0.0044531343 0.050411735 -0.10593696 -0.016403446 0.045898754 -0.09242058
-0.03319958 0.015105492 0.060302287 0.043392 -0.017197512 -0.05621595 -0.03609082 -0.005429502
-0.03569426 0.043956056 0.021823654 0.08470428 -0.04111951 0.03136308 -0.03449246 -0.06952084

conv1.lin.weight f4 [64, 64]
00000000: c931 1f3d ca65 783d 8b87 c93d 7c73 0f3d
00000010: 29f9 a73d fb1a 423d 481f bf3d 0287 003f
00000020: 8c37 5ebe 07fe cfbd cb1b 13bf 39d8 c0be
00000030: 408b ac3e 86d5 84be f662 1abe 01ed 1c3c
00000040: ce29 6bbe 2b10 09bd d52e de3d 4688 e0be
00000050: 6d54 adbb b193 62bd e5de f23d df80 9a3e
00000060: 2331 8dbe 9094 78be a9c0 6f3e 7e47 0fbe
00000070: 4770 12be a60c 01bc 7f38 a43e 40ec 813e
00000080: 8ead 75be 4e2e a83e d51a 563e eb05 ff3d
00000090: 62b8 46be 2f8f ad3c b8cf 133e 8c75 283e
000000a0: 8971 7fbd 6e79 193e bf1d 1fbe bfe0 133e
000000b0: afa7 623e 24e4 80bd 7aa0 4fbe c3ba 773d
000000c0: 1471 01be 66d9 87b9 b8fb a4be 2249 b3bc
000000d0: 0301 883a d1ef 2a3d 159b 063d 93eb edbd
000000e0: 26cc d53c ed38 a83d a297 6a3d c6d0 4b3e
000000f0: 09a0 0b3e 9918 1f3e dbca 203e 7c6c 3c3b
00000100: 27de 81bd 6a7b 953c cb0d 22bd 5a8c f4be
00000110: b645 33be 2191 b7be 3d03 32be 8b54 fe3c
00000120: 5f18 fc3d d9c2 83be 1e2f 60be eea3 ad3b
00000130: 4128 373d e248 bc3d cec1 eabd 5352 56be
00000140: ee49 de3c 456f b1be 7868 fcbc c437 8abe
00000150: 5640 a9bc 1297 c0bd ac22 1c3d 726a 28be
00000160: 0ba2 54be 0b8b d23d 61ab 873e 8ba3 e83d
00000170: 436a e0bd 7da3 c03d f31c 1d3d 1654 283e
00000180: f759 563c 4189 383f f240 e33e bdc2 ac3b
00000190: b20d 853e 05db 413f cc48 8ebe c34a 08be
000001a0: bb60 8fbe 688f c0be 08b0 d73d b1d8 363f
000001b0: db91 133e ebfb 3bbe ad85 a0be 44c3 7cbe
000001c0: b878 883c bdb2 c43c a3cc 28bf 8946 15bd
000001d0: d5d7 df3e 1750 2f3e 28fd 47be 7990 35bd
000001e0: 9d86 8ebd 2660 a0bd 2c1c 5c3e 2b80 2b3e
000001f0: c495 543f beb0 373f 2298 833e f3a1 26be
00000200: 7805 28be 9606 aebd be8c e03c e870 bc3c
00000210: b1f5 bd3e e3a9 f03d f67c c23d 0034 0bbf
00000220: a4d7 2a3e 1fad 8e3e 6ae2 173e 0331 87bd
00000230: a9e9 1e3d 837e ff3c ad96 2a3e 7f60 d0be
00000240: 3e8b b3bd 144e 2dbe 4363 2b3d 9036 673e
00000250: 3600 cebe 4228 d7be 88b4 d03d 7e66 a2be
00000260: e333 143e 467f 563e 055f 973e f746 0ebd
00000270: 5ebc e4bd 41a6 47be 1bb3 5d3c 5eeb 583d
00000280: eb11 283e b0b9 463e 0b3d dc3d 1dbf 62be
00000290: 3e06 ed3d a0b2 9b3d bab9 5b3d a4db c5bd
000002a0: 4fd0 79bc ddc5 abbe 0367 33bf b807 423e
000002b0: ff96 273e e2c8 bdbd 44c3 853d eda3 1cbe
000002c0: 4ed6 de3d 74dc 0b3d 9000 8bbe baad 42be
000002d0: abf5 13bc a147 953d d2ac d5bc f5f4 a93d
000002e0: c14f c53d c2ba 2fbd 61aa 43be 23e1 46be
000002f0: 0409 eb3e 3f24 223e 16f5 87be 7be0 adbd
00000300: b59c 81be aa97 8abd ff1b dabb 87bb b5be
00000310: 53b8 eb3d 68f5 8cbd 5ab5 e0bd 5f2b 12bf
00000320: 41e3 9a3e dde3 833e 311c b33d 6574 c6bc
00000330: 9ba3 0b3d 922d fe3d 70bc 3fbd f06f 543e
00000340: d008 88be 4c71 e8bd 2923 a73e fe8b 00bd
00000350: f080 7dbe cd68 54be f8ab 35be fea4 093d
00000360: 2f0d d83e 397b aebd ce69 1dbe 00c2 e03c
00000370: edc3 9c3d 75e4 49be 32a5 16be cf05 9c3e
00000380: 02c7 933e 0ec8 bc3d 3b29 793c ecb8 acbe
00000390: de9b 4c3d 91e3 ab3d 3c86 0bbf 58d2 723e
000003a0: 7bab ab3c 3c1d 963d c932 a33d 1331 223e
000003b0: fcdf 16be e579 a13d eb4d 53be 8f04 8dbd
000003c0: 7383 f6bd a385 b23e 0b4f 14be 39ae ba3d
000003d0: 2ebf b3be 7772 913d 7a4b feb9 edbe 4dbd
000003e0: 498f 2abd 46d8 423e 505a 003e 4fce 3dbe
000003f0: 1279 f8bc bea3 063e cec9 963d ac7f e7bc
0.03886584 0.06064395 0.09840306 0.035022244 0.082018204 0.04738901 0.09332138 0.50206006
-0.21700877 -0.10155874 -0.57464284 -0.37664965 0.3369999 -0.25944155 -0.15076813 0.0095779905
-0.22965166 -0.033462685 0.10848776 -0.43853968 -0.0052896054 -0.05531663 0.1185892 0.30176446
-0.2757655 -0.24275422 0.23413338 -0.13992116 -0.14300643 -0.007876551 0.32074353 0.25375557
-0.23991987 0.32847828 0.20908673 0.12452301 -0.19406274 0.02118644 0.14434707 0.1645109
-0.062364135 0.14987728 -0.15538691 0.14441203 0.22134279 -0.06293514 -0.2027606 0.060480844
-0.12640792 -0.0002591118 -0.32223296 -0.021885458 0.0010376278 0.041732613 0.03286274 -0.11617198
0.026098322 0.08213983 0.057273515 0.1990386 0.13635267 0.15536727 0.15702383 0.0028751185
-0.063412 0.018247325 -0.039563935 -0.4776333 -0.17507061 -0.35852912 -0.17384048 0.031046173
0.12309336 -0.25734594 -0.21892974 0.005299083 0.044716123 0.09193589 -0.114627466 -0.20929842
0.027134862 -0.34655204 -0.030811533 -0.2699567 -0.02066056 -0.094038144 0.038119003 -0.16446856
-0.2076494 0.102804266 0.2649794 0.11359318 -0.10957768 0.09406183 0.038357686 0.16438326
0.013082973 0.7208443 0.44385487 0.005272238 0.2598701 0.7572482 -0.27789915 -0.1330977
-0.28003487 -0.3760941 0.10531622 0.71424395 0.14411108 -0.18357818 -0.31351987 -0.24683863
0.016659126 0.02401101 -0.6593725 -0.03644422 0.43719354 0.17120396 -0.19530165 -0.044327233
-0.06959269 -0.07830839 0.21495122 0.16748111 0.83041024 0.7175406 0.25702006 -0.16272716
-0.16408336 -0.0849735 0.027410861 0.023003057 0.3710151 0.11751153 0.09496491 -0.5437622
0.16683823 0.27866456 0.14832464 -0.06601145 0.038797054 0.031188255 0.16659041 -0.4069862
-0.08766793 -0.16924316 0.04184271 0.22579408 -0.40234536 -0.42022902 0.101906836 -0.3171882
0.14472918 0.20946988 0.29564682 -0.034735646 -0.11168741 -0.19497015 0.013531472 0.05295884
0.16413085 0.19406772 0.107538305 -0.22143216 0.11573456 0.076024294 0.05364392 -0.09661034
-0.015247419 -0.33549395 -0.7007906 0.18948257 0.16366194 -0.09266831 0.065313846 -0.15296908
0.10880719 0.034145787 -0.27148867 -0.19011584 -0.00903074 0.07289053 -0.026083384 0.08298675
0.096343525 -0.042902716 -0.19107963 -0.1942182 0.45905316 0.1583414 -0.26554173 -0.08490082
-0.2531487 -0.06767209 -0.0066561694 -0.35494635 0.115097664 -0.06882745 -0.1097209 -0.5709743
0.30251506 0.25759783 0.087456115 -0.024225423 0.034091573 0.124110356 -0.046810567 0.20745826
-0.26569223 -0.11349735 0.32644013 -0.031383507 -0.24756217 -0.20743103 -0.17741382 0.033604614
0.42197558 -0.085195966 -0.15372393 0.027436256 0.076545574 -0.19716056 -0.14711455 0.30473182
0.28862768 0.09217845 0.015207584 -0.33734834 0.049953334 0.08393014 -0.545017 0.23713052
0.020955792 0.07329795 0.07968671 0.15839033 -0.14733881 0.07884578 -0.20635192 -0.06885635
-0.12036791 0.34867582 -0.14483277 0.091152616 -0.35106796 0.071019106 -0.0004850289 -0.05023091
-0.041640554 0.19027814 0.12534451 -0.18535732 -0.030331168 0.131484 0.0736271 -0.02825912

conv2.bias f4 [64]
00000000: 11ed 33be 5da0 413d 6092 23bb 8708 5cbd
00000010: dafa 11be 8d57 24bd 86da de3d 6504 b73c
00000020: 8187 ccbc ce5e 29bb bfb4 f03d 2411 183e
00000030: 76e5 a9bd 4416 203d 4c31 503e 0185 733d
00000040: c645 983c a7a0 8dbd 1ab2 0bbe 423d 15be
00000050: 2833 123d e554 373c 04d4 1f3e 4b3d e53d
00000060: c23f 3fbd 0a32 cb3b fb1b 86bd 77dd 143d
00000070: 15cb 8d3d d80d 9dbd 2cdd 31bd 790d 543d
00000080: b4b8 27be ac26 5bbd a4ab 49be 87f7 833e
00000090: 32e0 8e3c e28d 3f3e a517 443d 41c5 d23d
000000a0: 69c2 a8bd 77e0 d73c b228 7abe 2a62 d03c
000000b0: a855 01be dc34 dabc ed01 033d f563 a2bd
000000c0: 34aa bdbd 0f7e 1a3c eaa4 48be 85b8 c5bd
000000d0: b1fb e33d b03b 0b3e ca12 3fbe 4cfd c2bd
000000e0: 36fe 25be 19ad 9bbd 6eb6 443c 6223 b9bd
000000f0: 762d 2cbe 7461 2e3c 5fbe 6a3d f9d0 423d
-0.17570902 0.047272075 -0.0024959072 -0.05371907 -0.14255849 -0.040122557 0.10881524 0.022340963
-0.024966957 -0.0025843862 0.117532246 0.14850289 -0.08295719 0.039083734 0.20331305 0.059453014
0.018587958 -0.06915408 -0.13642159 -0.14574149 0.035693318 0.011189674 0.15608221 0.11193331
-0.046691664 0.0062010335 -0.065483056 0.036344018 0.069235004 -0.07668656 -0.043423817 0.05177066
-0.16379052 -0.053503677 -0.19694382 0.25774786 0.017440889 0.18706468 0.04787411 0.102915294
-0.08240206 0.02635215 -0.24429587 0.025437433 -0.12630332 -0.026636533 0.03198426 -0.079292215
-0.09260979 0.009429469 -0.1959416 -0.09654335 0.11131991 0.13596988 -0.18659511 -0.09520969
-0.16210255 -0.07601375 0.012006385 -0.09039952 -0.16814217 0.010643352 0.05731046 0.047562573

conv2.lin.weight f4 [64, 64]
00000000: 2e94 17bf 7593 a9be e8cb 1c3d e970 eb3b
00000010: 9c89 f3be 70f8 9e3e 1ed3 f2be 46bc bdbe
00000020: 68a5 4c3e e159 33be 3097 c13e bf24 95bd
00000030: 904c eebd bc30 b7bd 6737 b33c 16e8 493d
00000040: 9aa9 0c3e d452 d33d 8a35 a93c fa21 d53d
00000050: 6867 b23d 7c95 babe 602e 80be 5b4e a93e
00000060: 778d bebe 4d7c fc3e b5d9 85be 5d73 17be
00000070: 533d 4bbe c65d 1bbd 5458 91be 9aca 843e
00000080: 468e b23d 6985 dbbd 46b6 1e3e 3725 c0bd
00000090: 2140 be3d b631 38be 7ecd 24bf 423e 153e
000000a0: 685d 323f 1628 4fbd 168b 493e bde4 df3c
000000b0: 20ad 8e3d d120 7f3d 47b9 7ebd e6f1 20be
000000c0: b00f f43d 6be0 913e 2619 4c3e 268e 783e
000000d0: b227 093f 1198 7cbe bd96 923e ff37 bcbe
000000e0: dd47 ee3d e7a6 a93e c7d7 143d 6bcc 513d
000000f0: eb68 b53d a950 98be b957 313e 95bd 223e
00000100: 43e4 a3be 6b72 0fbe 76a1 c0bf feb0 b2be
00000110: 00ac 64be 5ea0 14be 5c1f 14bf 46d9 2a3e
00000120: e5a3 573e 9759 4dbe 79e7 63be fcb0 ffbe
00000130: 0935 f53e 2bd1 9dbe 737a f53e 379c fdbe
00000140: d010 233f a087 10bf 92b7 8ebd df04 28be
00000150: 35d8 9abe 1ded 1dbe 7a16 223e 64f7 333f
00000160: c79d 693e c240 7abe 21f7 be3e c61a bfbe
00000170: 6556 9abe 099e 9ebe 92ce 033f 0a71 153d
00000180: e0a3 1f3e e5f6 663e 35b4 29bf 5ff3 23bc
00000190: 2f23 b13e f223 e03c 9b78 743f 1d16 b13d
000001a0: 86fa 0f3f 74c4 703e a185 553e 5899 393d
000001b0: d170 a8be 1057 473e 8e51 d4be ecc4 43be
000001c0: 10d5 043f 742b 603e 7397 31bf 7788 953e
000001d0: 0ff8 e2bb 4105 65be a201 abbe 3f92 88bf
000001e0: aa85 833f adcd cbbe c015 2fbd 20cc dbbe
000001f0: 0056 663e 7e47 a1bd ac56 493e d02b ccbc
00000200: 2c9a 35be 5dd1 a2bd 24df 913c 1fe7 59be
00000210: 02f6 413d b231 563e 5766 bebe 03d3 493d
00000220: 8231 2c3e a75c 36bd 9a8a 973d 7b49 a2be
00000230: 4174 6abc 3a7f fdbd 2ffe 633e ac4b 803e
00000240: 556f 7bbe 1421 58be 414a 18bf 16d8 d8bd
00000250: 46ef 1fbe 25f5 d2bd 09f1 17be 8b3b 49bd
00000260: 549e a8be cb73 cf3c 970a 72be 1df5 b9be
00000270: bfbb 83be 901d a93e 289f 313e 3d0c b3bd
00000280: b9b7 ab3d 6bf5 5a3a a056 28be 8bc6 dc3d
00000290: d656 a6be 3109 b73d 835a 6b3e 4ca2 3dbe
000002a0: 95e7 023f 3fef 023e d961 153e 65fe 10bd
000002b0: 5157 06be 7103 d3bc 1d4d eebe c21c 63be
000002c0: b907 e53d 9050 843d b8ab 94be 4849 953e
000002d0: 51d9 fdbd 2cff 66be 33a5 9cbd 189f 403e
000002e0: 040a e8bc c63c d5bd 0739 8b3d f2d2 00bb
000002f0: 1dec 22be 1807 aabe 92b4 f7bd dc42 83be
00000300: 22e6 9d3d dda6 9fbe 1633 0fbd ea5f a9bc
00000310: 29b2 adbe 32b7 113e 4588 003f df29 17be
00000320: fbb4 6bbd f6e8 da3d 2c62 9bbe 2922 9dbd
00000330: 9383 243e 453c aebe 975c a2be 37c5 adbe
00000340: e97c c53d 5434 0c3e fee0 1c3f fc9c 2cbd
00000350: b7ff b63e 1ee8 36be 83fe 573d 742f f13e
00000360: 196e c83e ad53 ddbe 973d 8c3e 8b40 18bd
00000370: 75d1 c3be 3d78 75be 6e8b 553e aa24 45be
00000380: 6864 ad3e adaa ef3d ae71 fcbd 8c96 18be
00000390: 5ffd c03e 65d6 0cbf f76f 4dbe 8223 8e3e
000003a0: 17db 40be aaae f6bd 439b d33c 085c d53d
000003b0: 8410 983d 5bfb e13d 0664 ac3e f8c3 103e
000003c0: 8a31 eabe 777b 563c b33e d13d a04e d7bd
000003d0: 4164 86be 5b6b 223f 87e2 4a3e c7fd f13c
000003e0: d441 143e 5e2a 573e a86f 943d e770 913c
000003f0: eb99 7c3e 08ee 1b3e 59b3 073f cb28 db3e
-0.5921048 -0.33120313 0.038280398 0.007185091 -0.47565925 0.31048918 -0.47426695 -0.37057704
0.19984972 -0.17514755 0.3781066 -0.072823994 -0.11635697 -0.08944842 0.021877004 0.0492936
0.13736573 0.103185326 0.020655412 0.10406871 0.087111294 -0.36442173 -0.2503538 0.33067593
-0.37217304 0.49313584 -0.2614266 -0.14790101 -0.19847612 -0.037931226 -0.28387702 0.25935823
0.08718543 -0.10718805 0.1549922 -0.09382098 0.09289575 -0.17987713 -0.64376056 0.1457453
0.69673777 -0.05057534 0.19681963 0.02733075 0.06966615 0.062287156 -0.062188413 -0.15717277
0.11917055 0.2849153 0.19931468 0.24272975 0.53576195 -0.24667384 0.2863063 -0.36761472
0.116348006 0.3313515 0.036338594 0.05122034 0.08857902 -0.2974904 0.1731862 0.15892632
-0.32010087 -0.1400849 -1.5049274 -0.3490066 -0.22331238 -0.145143 -0.5786035 0.16684446
0.21058615 -0.20053707 -0.22256269 -0.49939716 0.47892025 -0.30823645 0.47944984 -0.49533245
0.6369753 -0.5645695 -0.06968607 -0.16408108 -0.30243078 -0.15422483 0.15828887 0.70299363
0.22814094 -0.24438766 0.3729792 -0.37325114 -0.3014404 -0.30979946 0.51487076 0.036484756
0.15589857 0.2255512 -0.662906 -0.010006755 0.34597155 0.02736089 0.9549653 0.08646796
0.56241643 0.23512441 0.20851757 0.045312256 -0.32898572 0.19466805 -0.4146847 -0.19118088
0.5188761 0.21891576 -0.6937172 0.29205677 -0.0069265435 -0.22365285 -0.33399683 -1.0669631
1.0275166 -0.39805356 -0.04274535 -0.42929173 0.22493744 -0.07874964 0.19661969 -0.024923235
-0.17734593 -0.07950089 0.017806597 -0.21279572 0.047353752 0.20917395 -0.37187454 0.049273502
0.1681576 -0.044521954 0.07399483 -0.31696686 -0.014309944 -0.12377782 0.22264932 0.25057733
-0.24554189 -0.21106368 -0.594883 -0.1058809 -0.1561862 -0.10300664 -0.14838041 -0.04912905
-0.32933295 0.02532377 -0.23636852 -0.3631982 -0.25729176 0.33030367 0.1734587 -0.08742569
0.08384652 0.000835261 -0.16439295 0.107800566 -0.32488126 0.089373 0.22983746 -0.18518943
0.51134616 0.12786578 0.14588107 -0.03539886 -0.13119246 -0.025758477 -0.46543208 -0.22178939
0.111831136 0.064606786 -0.2903726 0.29157472 -0.123949654 -0.22558278 -0.07648697 0.1881069
-0.028325088 -0.10411982 0.067979865 -0.0019656983 -0.15910383 -0.33208537 -0.12094988 -0.25636947
0.0770991 -0.31181994 -0.03496083 -0.020675618 -0.33924988 0.1423004 0.5020793 -0.14762066
-0.057545643 0.10688965 -0.30348337 -0.07672531 0.16065817 -0.34030357 -0.31711265 -0.33939525
0.09642965 0.13691837 0.6128081 -0.0421419 0.3574197 -0.17861983 0.052732956 0.47106516
0.39146498 -0.43227902 0.2739074 -0.037170928 -0.3824574 -0.23971649 0.2085397 -0.19252267
0.33865666 0.11702476 -0.1232637 -0.14901179 0.37693307 -0.5501464 -0.20062242 0.27761465
-0.18833576 -0.12045033 0.02583087 0.10417944 0.07425025 0.110342704 0.33670062 0.14137256
-0.4574092 0.01309096 0.10217037 -0.105130434 -0.26248363 0.6344506 0.19812976 0.029539956
0.14478236 0.21012256 0.07247859 0.017754031 0.2466809 0.1522752 0.5300804 0.4280456

conv3.bias f4 [64]
00000000: 3020 10be 6b1b 6f3d 107a fcbc fc1f 4ebe
00000010: 5dbf 993e 3655 f33c ff30 0bbc 646d c2be
00000020: 0f84 e9bd f045 15be a0b4 99be 491f 433d
00000030: 83f6 de3c 33d7 c33d b3f5 c6be 85b1 37be
00000040: deb4 673d 5875 f23c 6993 fbbd 9a30 96bd
00000050: 44b4 90bd 5675 c8bd d247 cd3d 757a a93d
00000060: d403 1c3e 6712 d63d 6ead 09bd 0323 d43d
00000070: a544 913d b9d5 0dbd d00a 003d 2e6f d83d
00000080: 7209 12bd 69ee e1bd 4689 a5bd 9e5d ff3c
00000090: 610e 813d db45 043e 753f bfbd 4abe c43c
000000a0: ffe6 ebbb e4c0 803c adb8 15be 9b88 ee3d
000000b0: 71b2 2f3d 4057 093e 41bb 82bb 83ad 9fbd
000000c0: b6bc bb3d 9b27 113e 4e35 49bb 97ce a2bc
000000d0: 67db 11bd 9948 02bf a6c0 85be af42 383e
000000e0: ad52 ad3d 1d22 11be 2054 853e 14ca 22bd
000000f0: 800c 27bd dd34 3abe 894e 92bd 85cd 173a
-0.14074779 0.058375757 -0.030819923 -0.20129389 0.3002881 0.029703718 -0.008495568 -0.37974083
-0.11402141 -0.1457746 -0.30020618 0.047637258 0.027217155 0.0956253 -0.3885933 -0.17938812
0.056568973 0.02959697 -0.12283976 -0.07333489 -0.07065633 -0.09788005 0.10023464 0.0827531
0.15235835 0.10452729 -0.03361266 0.103582405 0.07093171 -0.03462765 0.03126031 0.10568081
-0.03565354 -0.11031801 -0.080828235 0.03117257 0.06301571 0.12917273 -0.09338275 0.024016518
-0.0071991677 0.015716977 -0.1462123 0.11647149 0.042894784 0.1341219 -0.0039896076 -0.077967666
0.09166853 0.14175265 -0.0030701938 -0.0198739 -0.03560963 -0.50892025 -0.26123542 0.17994188
0.08463035 -0.1417317 0.26040745 -0.039743498 -0.040783405 -0.18184228 -0.07143886 0.00057908177

conv3.lin.weight f4 [64, 64]
00000000: fc2e d43d 8323 193f e3ae 89be c1ec 1e3f
00000010: 9f68 4d3e 842e 9d3e 79a0 50bf 189d a53b
00000020: ed72 4f3d 70ab d3be d2b8 2fbe 9a7e 85bd
00000030: da4d d9bd 5e7f 10bd cb53 af3d 4f7d c9be
00000040: 4963 cebe 3868 183f 571e 0c3e c529 b83e
00000050: f678 b8bd 800d 273e 9d23 a0be e3da a0be
00000060: 5d98 ddbe e30d 75be f441 a53e bf96 f23d
00000070: aac7 cfbb f6cf c73d e075 e5be c0ea b2be
00000080: d0dc 3dbe fc79 713d 9f8b 243f 6bb2 c9be
00000090: e3d3 0e3b c8e6 373e ada8 dcbd 47c1 3ebe
000000a0: 455b 8bbc 9ee0 bc3e 0354 ec3e 2a37 233e
000000b0: 713d 0a3f 9112 a63e d6e0 56bd 4753 ae3e
000000c0: c6f7 813d da33 1a3f 38e6 8e3c 982c c93c
000000d0: e7a5 1bbf a26f 723e ff9f b53e d938 033e
000000e0: bed9 aa3f 4542 d93e 2bd6 913e f5b8 713e
000000f0: 477f 243f 78c4 f73d 1c03 6abd dca8 ae3c
00000100: f23c 70be 68ae 333e 7384 d5bb d0d9 03bd
00000110: 0f2b 26bd ee85 7cbe 09b2 d7bc 8863 1bbd
00000120: 4172 19be 136c 89be b251 43bd fac5 ecbe
00000130: 42c5 3abe 59a6 293d 5cb7 133e 0e2d e13c
00000140: 0e40 0b3d 475c 7c3e 5d66 90be fc55 9f3d
00000150: 0f22 923d 8391 a6bb 8abe c7be 44aa 6f3d
00000160: 066b b2be 4c7e b43e 7002 6b3e 82e7 c03d
00000170: 57b0 6b3e c040 59bd 7ac0 e83d c29a 0e3d
00000180: 62fb a13d c48c 27bf ec98 ecbe 4d00 513e
00000190: a0e6 b23e 43b2 bf3d 28f5 923e ba92 f53d
000001a0: 3f25 08be 631e 43be e99d 8dbe e66f 653e
000001b0: 8556 8d3d 3dcb 4abe d1aa a43d 1782 993e
000001c0: 3b9c 983e be50 1cbe 2c43 5e3d dc31 373d
000001d0: b5b7 61bd b018 88be 95eb 883e 0de1 2ebd
000001e0: d0d2 bd3c 6f1a 4cbe a34a b9be ab33 e7bc
000001f0: 88ae 723e 1755 c6be f600 d63d b955 903e
00000200: b326 903e d1fc 8fb7 c39f c63d 2b2d 1fbe
00000210: da2b 3abe 13af c83d a654 67bc 9bea 483e
00000220: c243 a73b 7e9b 123e 54f7 3b3d 1f85 ddbd
00000230: df2f cc3e fb82 adbe e458 ffbb fc33 0bbe
00000240: cebb 273e bdae 94bc 8756 a63c e294 e53d
00000250: 6672 96be 7dc4 753e a76d 9dbc 0f44 1e3e
00000260: 6ba1 d53d 1574 de3e 0512 b2bb 5603 6fbd
00000270: 97e7 ea3d 3e6b 7bbd ad31 37be fd7f d53d
00000280: accf 233e ec1b c63d 5fe1 333d 3f91 d8bd
00000290: da72 f93d a48d a63c 33ea 103e 2039 0a3e
000002a0: 78bd c43d 213b d8be 6ca6 273e c9e0 243e
000002b0: b20c 4ebd 2558 533e 6023 803e b5d2 163d
000002c0: 1cae 3cbd 2057 883e 24c6 bd3e 9133 efbe
000002d0: d3d2 58be 103e 973d f5a0 94be 7936 2b3e
000002e0: 6bfa 913e 54ab 0cbe b216 843e 7156 ebbd
000002f0: 0c09 183e 3fdc a1be 0f52 da3d 5d26 cbbc
00000300: bc26 863e e7f8 953e 85d6 7b3e 51de 39be
00000310: 868a 9b3e c965 063e 8f30 283e dac7 7abe
00000320: 4c80 e8bd d7f7 693e d7be 8c3d 9ce4 04be
00000330: 981d 223e f8e4 063d 5425 debe b119 c3be
00000340: 55b8 c73d 9835 c7bd 20a6 7cbd ebd6 3d3e
00000350: 66d8 a2be e6be 183e d134 0a3e 881f 4bbe
00000360: 7c98 6ebe cac3 2dbe 7dff 4d3e 92b9 e2bd
00000370: 6d73 c63b 9b7b 7e3c 942f 063d 7ed0 6abe
00000380: 5a6f b73d 1fb3 0b3e e1db dd3d 2b27 b0bd
00000390: 160e 86be 35fd 8dbe a71f 4cbe 181e 2a3e
000003a0: 5fc7 023d 6e36 353d 4715 b93c 139b 813d
000003b0: d806 5a3e e3d4 85bd 7ec5 35be e479 00be
000003c0: b1e0 793e b9b9 4a3d 5cc5 1e3e 370a 28bc
000003d0: cde4 cc3c 8aad 9cbe d957 d3be 6fb6 743e
000003e0: 22c2 043e 7395 403d cae8 793d eea1 893e
000003f0: de03 813e 94c3 aabd 9c3b 2e3e 9df3 80bd
0.10360524 0.5981981 -0.2689124 0.6208001 0.20059441 0.3069955 -0.8149486 0.0050541274
0.05064671 -0.41341734 -0.17160347 -0.06518288 -0.10610552 -0.035277717 0.08560904 -0.39353415
-0.40310124 0.59534025 0.13683449 0.35969368 -0.090074465 0.16313744 -0.3127717 -0.31416997
-0.43280306 -0.23931079 0.3227688 0.11845159 -0.0063409405 0.09756462 -0.44816494 -0.34944725
-0.18541265 0.058954224 0.64275545 -0.39393935 0.0021793775 0.1795913 -0.1077436 -0.18628417
-0.017011294 0.3689012 0.46157846 0.15939012 0.54 0.3243604 -0.052460514 0.3404791
0.06346087 0.6023537 0.017443761 0.024557397 -0.6080002 0.23675397 0.3547363 0.12814654
1.33477 0.42433372 0.2848371 0.23605712 0.6425671 0.1209802 -0.05713187 0.021320753
-0.23460749 0.17547 -0.0065160333 -0.032190144 -0.040568408 -0.24660465 -0.026330011 -0.037936717
-0.1498499 -0.26840267 -0.047685333 -0.46244794 -0.1823931 0.041418407 0.14425415 0.027487304
0.033996634 0.24644576 -0.28203097 0.07780072 0.071354024 -0.0050832643 -0.39012557 0.058511987
-0.34847277 0.35252607 0.22950149 0.094191566 0.23016487 -0.053040266 0.11364837 0.034815557
0.079092756 -0.65449166 -0.4621042 0.20410271 0.34941578 0.093601726 0.28702664 0.119908765
-0.13295458 -0.1905456 -0.27659538 0.22405967 0.06901268 -0.19804092 0.08040393 0.29982063
0.29806694 -0.15265176 0.05426328 0.044725284 -0.055106837 -0.26581335 0.26742235 -0.042695094
0.023171812 -0.19931959 -0.36189756 -0.02822288 0.23699391 -0.38736793 0.10449402 0.281904
0.28154525 -1.7164655e-05 0.09698441 -0.15544574 -0.1818079 0.09799018 -0.014119303 0.19620745
0.005104513 0.14317128 0.045890167 -0.108164065 0.39880273 -0.33888993 -0.007792579 -0.13594049
0.16380236 -0.018149728 0.020304931 0.11210038 -0.29384154 0.24000736 -0.019217325 0.1545565
0.10431179 0.4344794 -0.005434277 -0.05835279 0.114699535 -0.06138157 -0.17890044 0.104248025
0.1599719 0.096732944 0.043916102 -0.105745785 0.12180109 0.020331211 0.1415184 0.13498354
0.09606451 -0.42232612 0.16372079 0.16101374 -0.050305076 0.20639093 0.2502699 0.03682204
-0.04606448 0.2662897 0.37065232 -0.4671903 -0.21174173 0.07384884 -0.2902905 0.16719998
0.28511366 -0.13737231 0.25798565 -0.11491097 0.14847201 -0.31613347 0.10660183 -0.024798566
0.26201427 0.2929146 0.24593551 -0.18151213 0.30379122 0.13124765 0.16424774 -0.244903
-0.11352596 0.2284845 0.06872337 -0.12977833 0.15831602 0.032933205 -0.43387854 -0.38105538
0.097519554 -0.09727019 -0.061681867 0.18539016 -0.31805724 0.14916572 0.1349671 -0.19836247
-0.23300356 -0.16969219 0.20116992 -0.11070551 0.0060562403 0.0155323995 0.032760218 -0.22931096
0.089567855 0.13642548 0.10832954 -0.08601221 -0.26182622 -0.27732244 -0.1993395 0.16613042
0.031928416 0.04424136 0.022593154 0.06328406 0.21291673 -0.065347455 -0.17751119 -0.12546498
0.24402119 0.049493525 0.15504974 -0.010256342 0.025011444 -0.3060115 -0.4127796 0.23897718
0.12964681 0.047017526 0.06101302 0.26881355 0.25198263 -0.08338085 0.17014927 -0.062964655

out.weight f4 [1, 128]
00000000: d890 e4be 8436 47be e88d 853d d588 47bf
00000010: 99b3 b0be 4536 cf3e e180 c33e 7e57 72be
00000020: 3b9a 393e 7145 a6be 9150 56be a725 383f
00000030: 878c 553e 6b5f eb3e ada4 6c3f bdff 33bf
00000040: 6153 edbe 5dc0 1c3f 32d5 0bbf 175e 98be
00000050: b39a 17bf 6622 fb3e 79dd 15be 80a8 a13e
00000060: b8af e53e 8c31 3abe 5b77 c33e 9c6b e23e
00000070: c6e7 443f 9ad1 89be 8b55 bb3e 76f0 383f
00000080: de99 9bbe c476 653e 3b40 8a3e d029 1c3f
00000090: 54ba 9a3e 6f6f b4be c6e1 61bf 348f 063f
000000a0: e74c 4abe 3afa 69bd e750 7ebf a820 233f
000000b0: d426 e43e 1680 e0be a4d9 243e 1801 06bf
000000c0: 959d 6fbe 663b d5be 90f4 773e 91ec 1cbe
000000d0: 49c9 873e 0a96 103f a406 96be 2788 43bf
000000e0: 5d70 fc3e 4bb9 2bbf ad63 d7be 284d 983e
000000f0: d1d8 27bf 8c8f 2fbe 359b ea3d 067a 243f
00000100: cec1 39be a733 55be b30a 783e 24d4 86bc
00000110: 8e68 74be bcde 2a3d ece5 623d d9ed 28be
00000120: c27a 153e b626 b6bd b4e2 3fbe 8110 2bbe
00000130: 21a2 3c3e a289 283c d63d 72be 4f4d a43e
00000140: 02fc 013d 94c2 813d 714d 1fbc 36dd a6bd
00000150: ad48 c5bd c299 58be a681 62be ae3a e93d
00000160: 65bd 3b3d 2d74 16be 97be 313e 8a88 d93c
00000170: 950a 203d 2970 cebe 5314 253e 2e7d aa3d
00000180: 779e 28bd 84c7 683e cb60 7c3a ed49 afbc
00000190: 0cf0 5f3d 4afd 3fbe 4bd5 6b3e c765 c63d
000001a0: 1546 b1be 3ab6 77be e4ed d43e e447 84bc
000001b0: c9cb 8cbc c187 483e 900d cf3e 3b9e c4bc
000001c0: c1e4 063f e77f 55bd 549f f43d ca83 b0be
000001d0: bb4d bfbe 7698 dfbe b550 1fbe 6d51 b13e
000001e0: f574 1d3e d69c b83e 5e57 da3d e628 d2bd
000001f0: 4712 053e 313e debe 96d2 a53e 62c3 043e
-0.44641757 -0.1945439 0.06521207 -0.77943164 -0.34512022 0.40471092 0.38184264 -0.23666188
0.1812524 -0.32474855 -0.20929171 0.7193245 0.20854388 0.45971236 0.92438775 -0.703121
-0.46352676 0.61231023 -0.54622185 -0.29759285 -0.5922043 0.4904968 -0.14635266 0.31573868
0.44860625 -0.18182963 0.38176998 0.44222724 0.7691616 -0.26917726 0.36588702 0.72241914
-0.3039083 0.22408587 0.2700213 0.610013 0.30220282 -0.35241267 -0.8823513 0.5256226
-0.19755898 -0.0571234 -0.993422 0.63721704 0.44560874 -0.43847722 0.16098648 -0.5234542
-0.23399957 -0.4164688 0.24214387 -0.15324618 0.26520756 0.5647894 -0.2930194 -0.76379627
0.49304476 -0.6707961 -0.42068234 0.29746366 -0.6556521 -0.17144603 0.11455385 0.64248693
-0.18140337 -0.20820485 0.24222831 -0.016458578 -0.2386801 0.041716322 0.05539505 -0.16496982
0.1459761 -0.08894102 -0.18738824 -0.16705514 0.18421222 0.0102867205 -0.23656401 0.32090232
0.031734474 0.06335941 -0.009723053 -0.081476614 -0.096330024 -0.21152404 -0.2211977 0.113881454
0.045834918 -0.14692755 0.1735786 0.026554365 0.03907259 -0.40319946 0.16121034 0.083246574
-0.04116675 0.22732359 0.00096274604 -0.021397555 0.054672286 -0.18748966 0.23030584 0.09687381
-0.3462378 -0.24190608 0.41587746 -0.016147561 -0.017187016 0.19583036 0.40440035 -0.024001231
0.526928 -0.05212393 0.11944452 -0.34475547 -0.3736399 -0.43671006 -0.15558131 0.34632435
0.15376647 0.36057156 0.10661195 -0.10261707 0.12995254 -0.43406823 0.32387227 0.12965158
